ENPM673_Final_project_code/ENPM673_NeRF/results/model.ckpt (torch, 90952 bytes, 6 tensors)

layer1.weight f4 [128, 39]
0.13681741 -0.12864563 -0.09965533 -0.09650565 -0.16213898 0.101684794 -0.30523312 -0.04221522
0.23831414 -0.0021015075 -0.3274281 -0.13604161 -0.65514857 0.3793742 0.27735502 -0.03676673
-0.20132186 0.4930163 -0.74204546 -0.27247638 0.11944629 0.018175814 0.07398795 0.07803548
-0.05083704 -0.20118938 0.15743051 0.04665537 -0.21097732 -0.022267286 -0.29626 -0.15153947
0.06491291 -0.022712294 0.007846391 -0.038550016 -0.060803905 0.10054578 -0.019100416 -0.22102548
0.23912983 0.1814837 -0.1071548 0.35355175 0.22288682 -0.27116507 -0.15518127 0.08736105
0.18106584 0.3254696 0.01813479 -0.22205283 0.24833931 -0.3029011 -0.20130114 0.5526854
-0.09698586 -0.6746581 -0.0025349688 -0.14086139 0.120001 0.20578949 -0.25224715 -0.6606764
0.29513285 0.14637807 -0.051940236 -0.010599131 -0.068215914 -0.07311953 -0.23543979 0.05158198
-0.20659065 -0.12225156 0.11163799 0.08718247 0.016511185 0.25827855 0.36654457 0.24560364
-0.12579638 0.13459949 0.020990627 -0.20456639 -0.27831265 -0.118083864 -0.13279408 0.11350179
0.031523574 -0.0035351475 -0.345348 -0.5227806 -0.22370239 -0.30894753 -0.32726982 -0.19369502
0.27183416 0.2749976 -0.38784218 0.072868206 -0.3934366 -0.031122405 -0.5520398 -0.52642006
0.3005303 0.08835025 0.5400935 -0.40179193 -0.11070703 0.41748822 0.16173528 -0.052051708
0.029008029 -0.0147434035 0.046306394 -0.15320669 0.049260538 0.11232022 0.052332807 -0.3018217
0.21374018 0.060717583 -0.2006091 -0.33368447 -0.20946907 -0.16909507 0.08268917 0.20546931
-0.28241536 -0.21960866 -0.042765766 -0.17056282 0.1469551 0.15736927 -0.03502308 -0.5229979
-0.25710145 0.044001255 -0.26042724 0.4066411 0.036981706 -0.18459813 0.29676363 -0.5483998
-0.0739244 -0.16033532 -0.15264425 -0.31145814 0.21777022 0.18238811 0.15999956 0.22105885
-0.3066923 0.47859037 -0.06204811 0.27472255 0.07119258 -0.019821363 -0.2944628 0.23368716
0.043884736 -0.46546322 -0.22166596 -0.43283334 -0.010007272 0.19566521 0.039918177 -0.4232633
-0.23242901 -0.35788575 -0.18211843 -0.23742536 0.26271766 -0.2100179 -0.24526104 0.4576946
-0.3775805 -0.074562 0.04039034 0.40428796 0.5591584 -0.17304675 -0.5606579 -0.04791261
-0.14851305 -0.42097282 0.56195825 -0.08789151 0.94945365 -0.3944461 -0.11072949 0.49569762
-0.20139372 0.11071446 0.0764514 0.28980103 -0.13796999 -0.13365951 -0.07369213 0.05586936
-0.24312092 -0.4342596 -0.11012277 -0.44284597 0.014325297 0.4967274 -0.17609216 -0.45832625
0.29480657 -0.09915189 -0.20505711 0.48469648 0.096848376 -0.5013481 0.29535225 -0.12850732
0.20081818 -0.07955186 -0.16342734 -0.11476499 0.14744422 0.49093372 0.0028096898 -0.047788724
0.6636427 0.42326504 0.08013228 -0.56281877 0.057545863 -0.036298156 -0.043994375 0.5448356
0.015727334 0.08639241 -0.24653213 -0.029947871 -0.123143904 -0.11844893 -0.14218181 -0.18686837
-0.14165407 -0.08553227 -0.25449 0.030149259 0.0027857851 -0.038515758 -0.38822773 0.30949378
-0.17030384 0.038391333 -0.093921684 0.31632093 -0.21237472 -0.22268833 -0.30502018 -0.014869165
00000000: dd19 0c3e aebb 03be 1818 ccbd c1a4 c5bd
00000010: c307 26be 1e40 d03d 8447 9cbe dee9 2cbd
00000020: 9f08 743e 72b9 09bb a8a4 a7be 7e4e 0bbe
00000030: d1b7 27bf 563d c23e 7a01 8e3e b698 16bd
00000040: 5127 4ebe a26c fc3e b1f6 3dbf 0682 8bbe
00000050: 42a0 f43d 72e5 943c ff86 973d 11d1 9f3d
00000060: 803a 50bd 9704 4ebe 7735 213e b419 3f3d
00000070: 700a 58be e269 b6bc 64af 97be 2a2d 1bbe
00000080: 0ff1 843d 220f babc 268e 003c 9fe6 1dbd
00000090: 840d 79bd f2ea cd3d 7a78 9cbc 8154 62be
000000a0: 73de 743e ddd6 393e fa73 dbbd bc04 b53e
000000b0: 713c 643e 26d6 8abe d7e7 1ebe 5aea b23d
000000c0: 5369 393e f4a3 a63e 698f 943c d161 63be
000000d0: a94c 7e3e da15 9bbe e321 4ebe ca7c 0d3f
000000e0: 86a0 c6bd 65b6 2cbf b821 26bb f83d 10be
000000f0: 16c3 f53d 7bba 523e 8a26 81be 1722 29bf
00000100: a71b 973e 22e4 153e 49bf 54bd faa7 2dbc
00000110: c9b4 8bbd b1bf 95bd 2117 71be a047 533d
00000120: 808c 53be 075f fabd 75a2 e43d b98c b23d
00000130: 7742 873c 163d 843e bbab bb3e 857f 7b3e
00000140: c4d0 00be 73d4 093e 89f4 ab3c da79 51be
00000150: ff7e 8ebe f4d5 f1bd 2cfb 07be a073 e83d
00000160: dd1e 013d efad 67bb 74d1 b0be f3d4 05bf
00000170: 3d12 65be 5f2e 9ebe e98f a7be fd57 46be
00000180: d92d 8b3e 7ccc 8c3e 4093 c6be ed3b 953d
00000190: 8670 c9be 6af4 febc 7b52 0dbf 77c3 06bf
000001a0: 1cdf 993e faf0 b43d 9143 0a3f acb7 cdbe
000001b0: 5eba e2bd 04c1 d53e ef9d 253e 2c34 55bd
000001c0: 3fa2 ed3c 518e 71bc c6ab 3d3d 37e2 1cbe
000001d0: 6bc5 493d 2508 e63d ed5a 563d 6088 9abe
000001e0: b5de 5a3e 00b3 783d 796c 4dbe b1d8 aabe
000001f0: 0f7f 56be 4227 2dbe f158 a93d 8c66 523e
00000200: bf98 90be 18e1 60be 282b 2fbd 05a8 2ebe
00000210: 667b 163e 6925 213e 5c74 0fbd 31e3 05bf
00000220: cda2 83be a93a 343d b856 85be 4333 d03e
00000230: 217a 173d 4b07 3dbe 67f1 973e ee63 0cbf
00000240: ad65 97bd f12e 24be c64e 1cbe 7177 9fbe
00000250: 28ff 5e3e f3c3 3a3e edd6 233e 405d 623e
00000260: c606 9dbe cc09 f53e 2926 7ebd 6fa8 8c3e
00000270: 6acd 913d 6960 a2bc d4c3 96be b04b 6f3e
00000280: 7bc0 333d 3251 eebe 67fc 62be 559c ddbe
00000290: 8af5 23bc 765c 483e 3e81 233d f8b5 d8be
000002a0: df01 6ebe cd3c b7be 417d 3abe a21f 73be
000002b0: ee82 863e ef0e 57be b625 7bbe f256 ea3e
000002c0: 3b52 c1be f6b3 98bd 5770 253d d5fe ce3e
000002d0: 0125 0f3f 2b33 31be 4787 0fbf 0340 44bd
000002e0: ce13 18be c089 d7be 7fdc 0f3f 7700 b4bd
000002f0: 650f 733f d7f4 c9be 25c6 e2bd 14cc fd3e
00000300: 283a 4ebe 43be e23d 8d92 9c3d cd60 943e
00000310: 0148 0dbe 0ade 08be e6eb 96bd 45d7 643d
00000320: b1f4 78be 4657 debe 0c88 e1bd b5bc e2be
00000330: a7b4 6a3c 0e53 fe3e 8151 34be bda9 eabe
00000340: e3f0 963e 2510 cbbd 7efa 51be 232a f83e
00000350: 7158 c63d 5958 00bf 6938 973e 6c97 03be
00000360: 48a3 4d3e 16ec a2bd 7f59 27be e809 ebbd
00000370: 9efb 163e aa5b fb3e c622 383b 1cbe 43bd
00000380: 7de4 293f 32b6 d83e 651c a43d e414 10bf
00000390: 36b5 6b3d 60ad 14bd 7233 34bd 597a 0b3f
000003a0: 9cd6 803c 81ee b03d eb72 7cbe 3d55 f5bc
000003b0: df32 fcbd 5a95 f2bd 1c98 11be 6c5a 3fbe
000003c0: c40d 11be 8b2b afbd 834c 82be 94fb f63c
000003d0: b891 363b b3c2 1dbd c9c5 c6be f875 9e3e
000003e0: 2164 2ebe 3b40 1d3d 035a c0bd d1f4 a13e
000003f0: c278 59be 6908 64be 9b2b 9cbe cc9d 73bc

layer1.bias f4 [128]
0.07778959 -0.14647332 -0.17129892 -0.3850795 -0.10309934 -0.13871832 -0.074441455 -0.0069806743
-0.12618928 0.014330573 0.06216713 -0.07027234 -0.35613614 -0.05050646 0.02982989 -0.037887335
-0.08072352 -0.08849835 -0.088567875 0.07180871 0.07779584 -0.43676746 0.053918432 -0.023055319
-0.12680095 0.094199926 0.06072555 -0.41908202 0.014055465 -0.13259983 -0.19626401 -0.23416275
-0.2891274 -0.15164536 -0.04844708 0.0011002547 -0.09614842 -0.11264832 -0.04743848 -0.036029715
0.14810419 0.020722095 -0.22354096 0.12697874 -0.28533578 -0.031160863 -0.3181182 0.020281311
-0.09948215 -0.12552296 -0.19834098 0.09787148 -0.332907 -0.24318218 -0.32800636 0.06776173
-0.04623265 -0.13831744 -0.010435112 0.06816435 0.060500056 -0.0005741212 -0.06167911 -0.15276699
-0.15001374 -0.19955105 0.029494654 -0.011373371 -0.16989698 -0.03129627 -0.0050386153 -0.08436972
-0.19105756 0.023841102 0.10163541 0.010823924 -0.13419943 -0.018533878 -0.20211272 0.11230928
0.061591163 -0.14396003 -0.058236506 -0.22166754 -0.13745278 0.011816834 0.055548355 -0.37630624
-0.047345925 -0.082250714 0.07080168 -0.042989496 -0.06720085 0.041530333 0.06558172 0.07947159
-0.075944416 -0.08726971 0.09580446 -0.16853245 -0.24400058 0.011906553 -0.13062626 0.14532109
0.071607694 0.017164128 -0.31818208 -0.16103818 0.10878458 -0.14469741 -0.05961689 -0.1687286
-0.18601996 0.07280327 -0.109381564 -0.04223287 0.023803689 0.029966911 0.07568206 -0.03224191
-0.053242125 0.1192752 -0.109075285 -0.26263 -0.16573882 0.008425354 -0.011648444 -0.31289947
00000000: 2650 9f3d 1afd 15be fc68 2fbe 2429 c5be
00000010: bf25 d3bd 2d0c 0ebe c374 98bd 24be e4bb
00000020: c337 01be c8ca 6a3c f6a2 7e3d f2ea 8fbd
00000030: 7a57 b6be dddf 4ebd d05d f43c c02f 1bbd
00000040: 5f52 a5bd 9f3e b5bd 1363 b5bd 7210 933d
00000050: 6d53 9f3d fc9f dfbe 93d9 5c3d 82de bcbc
00000060: 1cd8 01be e4eb c03d 5bbb 783d eb91 d6be
00000070: e548 663c 40c8 07be 6ff9 48be 5cc8 6fbe
00000080: 8208 94be ec48 1bbe 7270 46bd 6c36 903a
00000090: 76e9 c4bd 2ab4 e6bd da4e 42bd e593 13bd
000000a0: a0a8 173e 62c1 a93c ece7 64be b706 023e
000000b0: 8817 92be 1145 ffbc 64e0 a2be fe24 a63c
000000c0: 4cbd cbbd 1789 00be e619 4bbe d870 c83d
000000d0: c972 aabe c004 79be 73f0 a7be a9c6 8a3d
000000e0: 725e 3dbd 16a3 0dbe 08f8 2abc c099 8b3d
000000f0: e8ce 773d 9f80 16ba 3ca3 7cbd f36e 1cbe
00000100: 349d 19be 1c57 4cbe c69e f13c 6057 3abc
00000110: 79f9 2dbe 8530 00bd f81a a5bb 08ca acbd
00000120: 98a4 43be 6a4e c33c 3a26 d03d d456 313c
00000130: 936b 09be 5cd4 97bc a3f6 4ebe 6802 e63d
00000140: 0447 7c3d 426a 13be 6789 6ebd d1fc 62be
00000150: 6cc0 0cbe 659b 413c ac86 633d 36ab c0be
00000160: cded 41bd 1073 a8bd 7900 913d c115 30bd
00000170: 99a0 89bd b61b 2a3d b54f 863d 00c2 a23d
00000180: bf88 9bbd 76ba b2bd 2135 c43d c593 2cbe
00000190: 4adb 79be b413 433c e4c2 05be 0dcf 143e
000001a0: 0ea7 923d c99b 8c3c c3e8 a2be 31e7 24be
000001b0: 73ca de3d 8f2b 14be d730 74bd 31c7 2cbe
000001c0: 047c 3ebe e119 953d 7103 e0bd 60fc 2cbd
000001d0: f4ff c23c 2b7d f53c 32ff 9a3d 1810 04bd
000001e0: 6a14 5abd 8e46 f43d dd62 dfbd 7077 86be
000001f0: 70b7 29be 7f0a 0a3c 1ed9 3ebc 5c34 a0be

layer2.weight f4 [128, 128]
-0.12165658 0.100823194 -0.016395316 -0.17906131 -0.12822859 -0.07347355 -0.053665802 0.11870566
0.015840368 0.24984747 -0.027111178 0.23578113 0.053735856 0.08698297 -0.033520527 0.18935068
0.09419472 0.11149844 -0.020680737 0.0004089102 -0.17319141 -0.09704802 0.13863337 -0.1230223
0.051192027 0.09891615 -0.037314363 -0.17145042 0.06774856 -0.0146168135 0.063818246 -0.048576463
-0.2404645 -0.10353018 0.07354194 0.07152493 0.14622588 0.17627443 -0.058777377 0.16865169
-0.0069019697 0.07851937 -0.13428402 0.1680703 -0.11630776 0.09775087 0.028993975 0.11780197
0.20500396 0.03399755 0.1273553 0.07583034 -0.09718703 0.12225027 0.01223742 0.062497474
-0.066243835 -0.045672346 0.1942865 0.09224087 0.14823748 -0.02079512 -0.14359516 0.2261354
0.20367572 0.1384029 0.12968634 0.09667824 0.051539488 0.014792467 -0.049311068 0.43571612
0.069108866 -0.033830587 0.15511358 0.003037753 -0.15119463 0.20162001 0.17638776 0.17070937
-0.0718117 -0.012327437 -0.10119341 -0.121894225 0.07949714 0.015228372 0.01082076 0.097497754
0.09754007 0.19795372 0.100966685 -0.03629516 0.06719735 0.24273643 0.23806117 -0.024346711
0.12349184 -0.06670442 0.22459495 0.057308726 0.059985556 0.28301564 0.12304904 0.13642815
-0.0067099864 0.016634583 -0.10197914 0.17433865 -0.008204375 0.15553626 0.117456526 0.05271463
0.0385886 0.1108658 0.010766799 0.077379465 -0.035267275 -0.06901934 -0.14336374 -0.077494875
-0.21681666 -0.061647017 -0.0064331954 0.14208229 0.13472597 0.105537385 0.030897204 -0.10682374
-0.12538342 -0.026423477 -0.10576848 0.019582614 0.0180537 0.0011231801 -0.06329097 -0.071364
-0.09289534 0.0029329155 0.0019237582 0.034743667 -0.016859476 0.0039214483 -0.110604115 0.019142501
-0.026419241 -0.056505226 -0.065029174 0.008183016 -0.13146898 0.049392287 -0.12936808 -0.06244764
-0.022376774 0.030988442 -0.12804528 -0.07196304 -0.11093082 0.006908975 -0.010585178 -0.11649606
-0.069591746 -0.118829206 -0.008404869 -0.10838093 -0.098786116 -0.115384616 -0.06606165 -0.0772668
-0.06698025 -0.12191358 -0.054738577 -0.05789052 -0.065572575 -0.07764991 -0.11904702 -0.0413474
-0.103459865 -0.021084705 -0.11684545 0.023341335 0.0011861509 -0.07564155 -0.048916925 -0.08080646
0.027646722 -0.08646527 -0.10514306 -0.026311876 -0.032049067 -0.0067379717 -0.08409843 0.0027636483
0.029964225 -0.074794814 -0.05293378 -0.13040838 -0.09044658 -0.016973166 0.03423174 -0.10829565
0.002785188 0.04248017 0.0412727 0.009580083 -0.11548839 0.0228894 0.019442698 -0.09092864
-0.00569255 -0.10952533 -0.053610414 0.022910414 0.012124872 -0.048285857 -0.06535135 0.043649662
-0.10734333 -0.037240356 -0.049696013 -0.12444031 0.016087543 0.042186838 -0.101635166 -0.0746604
-0.07018982 0.036807373 -0.07131352 -0.054134507 -0.004156359 -0.071920425 -0.044347126 -0.016783059
-0.113703005 -0.11119812 0.036229197 -0.12582247 -0.007247597 -0.06496702 -0.11978849 -0.11871735
-0.10808819 -0.024135362 0.029334763 0.00959625 -0.1148089 -0.09271932 -0.023376117 0.005484692
-0.03996897 0.033618573 -0.007364408 0.032471642 -0.06869999 0.042819332 -0.07826264 0.025604583
00000000: 1627 f9bd 647c ce3d 784f 86bc d95b 37be
00000010: 5b4e 03be 4d79 96bd acd0 5bbd f41b f33d
00000020: a9c3 813c 04d8 7f3e 4318 debc 9c70 713e
00000030: 211a 5c3d 2124 b23d d24c 09bd 25e5 413e
00000040: 29e9 c03d 4b59 e43d a66a a9bc ff62 d639
00000050: 1759 31be 1dc1 c6bd e8f5 0d3e 1ef3 fbbd
00000060: bbae 513d 8d94 ca3d f2d6 18bd b390 2fbe
00000070: c2bf 8a3d 5c7b 6fbc 24b3 823d 1df8 46bd
00000080: 533c 76be a207 d4bd 289d 963d aa7b 923d
00000090: 3dbc 153e 4981 343e 8cc0 70bd 07b3 2c3e
000000a0: eb29 e2bb c3ce a03d c081 09be 9f1a 2c3e
000000b0: c332 eebd 9c31 c83d c684 ed3c 2942 f13d
000000c0: 8fec 513e 0441 0b3d 6e69 023e f04c 9b3d
000000d0: fe09 c7bd 595e fa3d 767f 483c 5afd 7f3d
000000e0: d9aa 87bd ed12 3bbd 0af3 463e c8e8 bc3d
000000f0: 91cb 173e 875a aabc 9c0a 13be 0a90 673e
00000100: 5e90 503e 7db9 0d3e 7fcc 043e 3eff c53d
00000110: 121b 533d 1a5c 723c 67fa 49bd 2f16 df3e
00000120: f388 8d3d f191 0abd 18d6 1e3e 0a15 473b
00000130: c4d2 1abe 7a75 4e3e fe9e 343e 70ce 2e3e
00000140: 0312 93bd 05f9 49bc 7e3e cfbd aea3 f9bd
00000150: 66cf a23d 6c80 793c 8f49 313c e7ac c73d
00000160: 17c3 c73d 61b4 4a3e 9fc7 ce3d 3caa 14bd
00000170: c49e 893d e68f 783e 4fc6 733e c172 c7bc
00000180: 4ae9 fc3d 549c 88bd 38fc 653e 8ebc 6a3d
00000190: 6ab3 753d 6de7 903e 2301 fc3d d2b3 0b3e
000001a0: 72df dbbb 4045 883c 70da d0bd d585 323e
000001b0: a56b 06bc e644 1f3e 0c8d f03d 4ceb 573d
000001c0: 140f 1e3d 9c0d e33d 3a67 303c 2079 9e3d
000001d0: 6b74 10bd 035a 8dbd f2cd 12be a2b5 9ebd
000001e0: 3005 5ebe 9581 7cbd 8ecd d2bb 057e 113e
000001f0: 9bf5 093e fc23 d83d 221c fd3c 68c6 dabd
00000200: 8364 00be 0c76 d8bc 259d d8bd b86b a03c
00000210: 5ae5 933c ac37 933a b29e 81bd 4a27 92bd
00000220: e93f bebd 2836 403b 9d26 fc3a 604f 0e3d
00000230: e21c 8abc 7e7f 803b 6984 e2bd bcd0 9c3c
00000240: 2a6d d8bc 0672 67bd 042e 85bd 0f12 063c
00000250: ce9f 06be 914f 4a3d 1179 04be 19c9 7fbd
00000260: 7f4f b7bc 79db fd3c 4d1e 03be 5c61 93bd
00000270: b32f e3bd af64 e23b 746d 2dbc 7c95 eebd
00000280: 1e86 8ebd ba5c f3bd 93b4 09bc d2f6 ddbd
00000290: 6050 cabd c54e ecbd 554b 87bd 0e3e 9ebd
000002a0: f12c 89bd d4ad f9bd 8f35 60bd 9c1e 6dbd
000002b0: ea4a 86bd ea06 9fbd edce f3bd e45b 29bd
000002c0: c4e2 d3bd d5b9 acbc ab4c efbd 5436 bf3c
000002d0: 9f78 9b3a f5e9 9abd 1d5d 48bd db7d a5bd
000002e0: 617b e23c b414 b1bd 3f55 d7bd 018c d7bc
000002f0: e245 03bd 34ca dcbb cc3b acbd 531e 353b
00000300: 8977 f53c 062e 99bd 17d1 58bd c689 05be
00000310: 0e3c b9bd 4f0b 8bbc 9536 0c3d 1cca ddbd
00000320: b387 363b b0ff 2d3d 900d 293d c8f5 1c3c
00000330: 2d85 ecbd 8d82 bb3c 4b46 9f3c cb38 babd
00000340: 9288 babb d14e e0bd 9896 5bbd 9fae bb3c
00000350: 66a7 463c 64c7 45bd eed6 85bd fdc9 323d
00000360: d2d6 dbbd 5889 18bd 0c8e 4bbd 90da febd
00000370: 06ca 833c 1bcc 2c3d 1926 d0bd 8de7 98bd
00000380: aebf 8fbd 54c3 163d d30c 92bd 25bc 5dbd
00000390: 1132 88bb 044b 93bd 55a5 35bd a07c 89bc
000003a0: 1fdd e8bd d7bb e3bd 1165 143d 9bd7 00be
000003b0: 407d edbb 6e0d 85bd ab53 f5bd 1522 f3bd
000003c0: 575d ddbd 86b7 c5bc 754f f03c 9739 1d3c
000003d0: ee20 ebbd a0e3 bdbd 457f bfbc eeb8 b33b
000003e0: 81b6 23bd a1b3 093d 2251 f1bb fc00 053d
000003f0: 95b2 8cbd 5363 2f3d 2a48 a0bd b4c0 d13c

layer2.bias f4 [128]
0.035771962 -0.029090881 0.019119741 -0.00014266545 -0.065776005 0.16278233 -0.032000538 -0.031835653
-0.08715682 0.17413005 -0.098800115 -0.05059527 0.038074523 -0.03996748 -0.1329743 0.0845871
0.14666297 -0.002646088 -0.04719052 0.037504077 -0.12430692 -0.05400798 -0.033320505 -0.050363738
-0.015624464 -0.06285877 0.10141417 -0.07467467 -0.079165965 -0.11540757 -0.0999195 0.15726061
-0.07858032 -0.06721559 -0.072467834 0.25402638 -0.05633257 0.09498536 -0.0020768289 -0.03861916
-0.10323543 -0.056664072 -0.034041088 -0.0859463 -0.10773823 -0.10907364 0.030833757 -0.104267195
-0.05283501 -0.075715125 -0.09059877 -0.028859943 -0.10008153 0.08979271 -0.03703505 0.021887174
-0.10115771 0.0038940024 -0.095861346 -0.016725654 0.011465201 -0.11758497 0.020854747 -0.11151387
0.26127738 -0.0209109 -0.11591916 -0.2220746 0.040114406 -0.06980919 -0.04109823 -0.08332837
-0.02453486 -0.12295122 -0.044497386 0.28056982 -0.10887887 -0.025158377 0.00067792047 0.28958154
0.029773874 0.032483622 -0.01451991 -0.09324214 0.062180683 0.014743899 0.032148253 -0.15372393
-0.10215823 -0.09422816 0.32086426 0.16777845 -0.08627947 -0.044262495 -0.0065795304 -0.09582614
-0.064766146 -0.10478264 -0.11612005 0.22650783 0.0008795817 -0.0027196992 -0.013010536 0.037580416
-0.080738604 -0.10102582 0.08536592 -0.0423408 0.27951303 0.043196503 0.0052211215 -0.019024823
-0.09164841 -0.039088536 -0.095833175 -0.06209475 0.012206657 -0.107023776 0.0810916 0.0050365753
-0.11405299 0.047899906 -0.05278946 0.0034288005 -0.09105906 -0.051538553 0.15134251 -0.10687193
00000000: 9f85 123d 0050 eebc 01a1 9c3c 7798 15b9
00000010: 92b5 86bd 69b0 263e ff12 03bd 1a66 02bd
00000020: 467f b2bd 264f 323e b757 cabd fc3c 4fbd
00000030: 08f4 1b3d f1b4 23bd 6a2a 08be 003c ad3d
00000040: d12e 163e fd69 2dbb d94a 41bd e09d 193d
00000050: a094 febd 7937 5dbd 157b 08bd 354a 4ebd
00000060: c0fd 7fbc 19bc 80bd 3bb2 cf3d 09ef 98bd
00000070: c421 a2bd ce5a ecbd 98a2 ccbd ed08 213e
00000080: b8ee a0bd 54a8 89bd 046a 94bd bf0f 823e
00000090: fbbc 66bd af87 c23d 681b 08bb 202f 1ebd
000000a0: 196d d3bd 9618 68bd ab6e 0bbd 9d04 b0bd
000000b0: dca5 dcbd 0062 dfbd 1397 fc3c 0a8a d5bd
000000c0: 8669 58bd 8810 9bbd d98b b9bd b06b ecbc
000000d0: 8cf7 ccbd 3ee5 b73d 11b2 17bd bb4c b33c
000000e0: c62b cfbd 8532 7f3b f452 c4bd 3d04 89bc
000000f0: 8ad8 3b3c 64d0 f0bd 93d7 aa3c 6261 e4bd
00000100: 26c6 853e 564d abbc 0667 edbd 8667 63be
00000110: 014f 243d 1ff8 8ebd 9e56 28bd 10a8 aabd
00000120: 55fd c8bc d9cd fbbd e442 36bd d9a6 8f3e
00000130: e3fb debd f118 cebc 79b6 313a 0844 943e
00000140: 57e8 f33c 8c0d 053d ebe4 6dbc bcf5 bebd
00000150: 2cb1 7e3d 6590 713c e3ad 033d ce69 1dbe
00000160: 5638 d1bd b2fa c0bd 5248 a43e 1dce 2b3e
00000170: 4ab3 b0bd 974c 35bd 1a99 d7bb 7f40 c4bd
00000180: 1da4 84bd 4898 d6bd 59d0 edbd abf1 673e
00000190: bb93 663a fb3c 32bb 252a 55bc eced 193d
000001a0: 485a a5bd a0e6 cebd 54d4 ae3d 8c6d 2dbd
000001b0: 551c 8f3e d1ee 303d f115 ab3b f2d9 9bbc
000001c0: 29b2 bbbd 4d1b 20bd 2f44 c4bd 1157 7ebd
000001d0: 6efe 473c 482f dbbd 5a13 a63d db09 a53b
000001e0: 9d94 e9bd b132 443d c339 58bd bab5 603b
000001f0: 2c7d babd 171a 53bd 88f9 1a3e acdf dabd

layer3.weight f4 [4, 128]
-0.07693434 -0.049970184 0.030913414 0.004410121 -0.028011486 0.13640739 -0.10093489 -0.008987672
0.020817727 0.29139894 -0.042593706 -0.13383557 -0.050936844 0.0095116785 -0.017583178 0.0010122212
0.109220564 -0.05143086 -0.037705947 -0.23592983 0.03026376 0.02734685 -0.15537411 -0.1664005
-0.117400125 0.030957913 0.021874437 -0.05529416 -0.029561946 -0.09411028 -0.024215981 0.23260768
-0.07171296 0.030306885 -0.052596655 0.11627985 -0.10941161 0.58677757 -0.047052156 -0.24429935
-0.09884202 -0.071963035 0.10747115 -0.0869971 -0.0859102 -0.28255513 -0.043914966 0.0577988
0.014774159 -0.07928938 -0.032722417 0.08644059 -0.12477036 -0.014265054 -0.07776676 0.24828242
-0.029986726 -0.043259636 -0.07566634 -0.012511473 -0.0837551 0.039916348 -0.12309825 -0.091465026
-0.10300317 -0.11153634 0.0076083774 -0.6394884 0.011092368 -0.46522236 -0.061078317 -0.043968327
0.013688396 -0.42515692 -0.23837067 0.064814724 0.036675528 0.005753207 -0.00581719 0.47945586
-0.21299312 0.014527234 -0.066731565 0.09980912 -0.010869611 -0.08943971 0.019690359 -0.06315408
0.016918693 0.032404196 0.47875234 0.032951944 0.0011854761 -0.038941056 -0.022541437 -0.019705962
0.0054497863 -0.0020265356 -0.23024312 0.011115054 -0.016554264 0.04088358 0.007831166 -0.03929683
-0.04904583 -0.0057477844 -0.00619665 0.046772216 0.04886371 0.03138748 0.043154627 -0.048900392
0.021761728 -0.057480276 -0.03227169 -0.018155104 0.012975496 -0.4105497 0.035505883 -0.028082807
-0.053850405 0.23291907 -0.008776255 0.02826116 0.0019290318 0.038508892 0.04103479 -0.23167966
0.101504125 0.03305012 0.017304622 -0.020059427 0.035954878 0.026138972 -0.06902937 -0.05018214
-0.07999492 -0.058418382 -0.09174303 -0.13143596 0.036282055 -0.09271002 -0.10334883 0.022270586
0.14066313 0.04659212 -0.04027808 0.013112465 -0.054918718 -0.00031515383 -0.22304572 -0.20446484
0.026701601 -0.043780673 0.023078108 0.006571119 -0.16208826 -0.12481865 -0.05107428 -0.016054846
-0.03541302 -0.09075335 -0.014009355 0.019072736 -0.023327334 0.185302 -0.017889842 -0.13971505
-0.020277882 -0.02091203 -0.07656348 -0.09066056 0.009281863 -0.36500612 -0.13125262 -0.049486633
-0.016515054 -0.028536016 0.030763304 -0.12275367 -0.16471243 0.028114337 -0.0539109 0.06165675
0.0077422597 0.01255803 -0.01982367 -0.030163558 -0.028880756 -0.0090793 0.003031058 -0.06161065
-0.05756135 -0.01391082 -0.06297585 -0.5365039 0.02042154 -0.38581127 -0.070072286 0.0020313102
-0.07487253 -0.08625605 -0.068287924 0.110494375 -0.100280575 -0.12074059 0.04454491 0.22629029
-0.099316195 0.03659611 -0.03685483 -0.06810227 -0.002003222 0.022694664 -0.07147016 -0.2197071
-0.08645357 0.039891068 0.35072902 -0.04173981 -0.1282176 -0.13205588 -0.1416318 -0.02790824
-0.04769061 -0.050804235 -0.11187715 0.021216989 -0.03573581 -0.012125104 0.032805204 0.084261805
0.023893464 -0.028598871 -0.042988423 -0.08510417 0.06551632 -0.026699483 0.035991482 0.043946642
-0.015818726 0.049661987 0.013751504 -0.042881478 -0.00063236087 -0.3054548 -0.020039964 -0.066658005
-0.08618671 -0.16998483 -0.06596553 0.024900213 -0.06946536 0.012715252 -0.013422787 -0.36080512
00000000: c08f 9dbd 89ad 4cbd 213e fd3c c782 903b
00000010: 5878 e5bc 61ae 0b3e f4b6 cebd 0741 13bc
00000020: f089 aa3c 3e32 953e bd76 2ebd 310c 09be
00000030: 27a3 50bd dfd6 1b3c 990a 90bc 82ac 843a
00000040: 08af df3d 2aa9 52bd 8d71 1abd 9797 71be
00000050: b4eb f73c 8006 e03c 641a 1fbe e564 2abe
00000060: 7a6f f0bd 739b fd3c 0532 b33c 217c 62bd
00000070: e52b f2bc e4bc c0bd 9860 c6bc b530 6e3e
00000080: 3fde 92bd 2546 f83c 976f 57bd 2124 ee3d
00000090: 3213 e0bd 0e37 163f c3b9 40bd 9c29 7abe
000000a0: af6d cabd 5b61 93bd d619 dc3d 892b b2bd
000000b0: b0f1 afbd 11ab 90be 2ee0 33bd 6fbe 6c3d
000000c0: 500f 723c 7862 a2bd f107 06bd c407 b13d
000000d0: 9a87 ffbd f9b7 69bc 2e44 9fbd bf3d 7e3e
000000e0: b9a6 f5bc 0431 31bd f4f6 9abd ecfc 4cbc
000000f0: cb87 abbd 537f 233d ef1a fcbd 0452 bbbd
00000100: 53f3 d2bd 2a6d e4bd b24f f93b 83b5 23bf
00000110: c3bc 353c a031 eebe 422d 7abd 2218 34bd
00000120: 4b45 603c 2bae d9be 7117 74be 95bd 843d
00000130: 1439 163d 6685 bc3b 209e bebb 3d7b f53e
00000140: de1a 5abe a303 6e3c 8faa 88bd b968 cc3d
00000150: 7416 32bc 2b2c b7bd ad4d a13c ed56 81bd
00000160: 1299 8a3c 43ba 043d 071f f53e 9ef8 063d
00000170: fa61 9b3a a880 1fbd d2a8 b8bc 666e a1bc
00000180: 1f94 b23b a0cf 04bb dac4 6bbe ea1b 363c
00000190: cf9c 87bc 8a75 273d 4a4e 003c b6f5 20bd
000001a0: 48e4 48bd e957 bcbb 450d cbbb 3994 3f3d
000001b0: 5025 483d 2990 003d e8c2 303d c74b 48bd
000001c0: a745 b23c 7070 6bbd 522f 04bd 03ba 94bc
000001d0: 2d97 543c 9233 d2be 9e6e 113d ea0d e6bc
000001e0: 3e92 5cbd 5682 6e3e 48ca 0fbc f383 e73c
000001f0: 91d7 fc3a 80bb 1d3d 1914 283d 6f3d 6dbe
00000200: 65e1 cf3d 905f 073d 6cc2 8d3c ab53 a4bc
00000210: 6c45 133d 6621 d63c 455f 8dbd ca8b 4dbd
00000220: 60d4 a3bd 1d48 6fbd c5e3 bbbd 2697 06be
00000230: 7e9c 143d c0de bdbd 8da8 d3bd ce70 b63c
00000240: ff09 103e 61d7 3e3d a1fa 24bd aad5 563c
00000250: 73f2 60bd 3b3b a5b9 1966 64be 3b5f 51be
00000260: 51bd da3c 5d53 33bd 4d0e bd3c 8b52 d73b
00000270: 77fa 25be eca0 ffbd 4433 51bd 7485 83bc
00000280: 3e0d 11bd e4dc b9bd 7e87 65bc 6d3e 9c3c
00000290: f718 bfbc cfbf 3d3e b88d 92bc 7611 0fbe
000002a0: cd1d a6bc b54f abbc 50cd 9cbd 3eac b9bd
000002b0: f512 183c 15e2 babe 1667 06be 7fb2 4abd
000002c0: 944a 87bc 5dc4 e9bc 5303 fc3c 4766 fbbd
000002d0: 60aa 28be 0a50 e63c add1 5cbd ca8b 7c3d
000002e0: c8b2 fd3b 32c0 4d3c 4065 a2bc 9119 f7bc
000002f0: 5697 ecbc 58c1 14bc b7a4 463b 735b 7cbd
00000300: 73c5 6bbd 35ea 63bc 7cf9 80bd 5258 09bf
00000310: 134b a73c 0e89 c5be 0f82 8fbd bb1f 053b
00000320: c556 99bd 03a7 b0bd 8ada 8bbd e04a e23d
00000330: e75f cdbd d846 f7bd b974 363d a4b8 673e
00000340: 4a66 cbbd cde5 153d 17f5 16bd 3479 8bbd
00000350: 7d48 03bb 29ea b93c f25e 92bd e6fa 60be
00000360: 920e b1bd d164 233d c192 b33e 5df7 2abd
00000370: 794b 03be a839 07be ed07 11be d29f e4bc
00000380: 3b57 43bd 1a18 50bd d91f e5bd 40cf ad3c
00000390: b65f 12bd 5fa8 46bc c05e 063d 7491 ac3d
000003a0: 3abc c33c 2e48 eabc a114 30bd 184b aebd
000003b0: 6c2d 863d e0b8 dabc ce6b 133d 6501 343d
000003c0: 4696 81bc 5e6a 4b3d fd4d 613c 7da4 2fbd
000003d0: 05c5 25ba 9264 9cbe da2a a4bc fe83 88bd
000003e0: a882 b0bd 8110 2ebe f018 87bd 88fb cb3c
000003f0: db43 8ebd a253 503c 40eb 5bbc 73bb b8be

layer3.bias f4 [4]
0.053803798 0.023405137 -0.07218253 0.19073132
00000000: 5f61 5c3d 21bc bf3c 6fd4 93bd 124f 433e
